…
 82%|████████▏ | 140M/170M [00:01<00:00, 85.7MB/s]
 87%|████████▋ | 148M/170M [00:01<00:00, 86.0MB/s]
 92%|█████████▏| 157M/170M [00:02<00:00, 86.0MB/s]
 97%|█████████▋| 166M/170M [00:02<00:00, 86.1MB/s]
100%|██████████| 170M/170M [00:02<00:00, 77.7MB/s]
Testing data loading...
Data loading successful! Batch shape: torch.Size([512, 3, 32, 32]), labels: torch.Size([512])
Device: cuda
Model loaded, starting training...
----------------------------------------------------------------
        Layer (type)               Output Shape         Param #
================================================================
            Conv2d-1           [-1, 40, 32, 32]           1,080
       BatchNorm2d-2           [-1, 40, 32, 32]              80
              ReLU-3           [-1, 40, 32, 32]               0
         Dropout2d-4           [-1, 40, 32, 32]               0
            Conv2d-5          [-1, 128, 32, 32]           5,120
       BatchNorm2d-6          [-1, 128, 32, 32]             256
            Conv2d-7           [-1, 40, 32, 32]             360
            Conv2d-8          [-1, 128, 32, 32]           5,120
       BatchNorm2d-9          [-1, 128, 32, 32]             256
        Dropout2d-10          [-1, 128, 32, 32]               0
           Conv2d-11          [-1, 240, 32, 32]          30,720
      BatchNorm2d-12          [-1, 240, 32, 32]             480
           Conv2d-13          [-1, 128, 32, 32]           1,152
           Conv2d-14          [-1, 240, 32, 32]          30,720
      BatchNorm2d-15          [-1, 240, 32, 32]             480
        Dropout2d-16          [-1, 240, 32, 32]               0
           Conv2d-17          [-1, 240, 16, 16]           2,160
           Conv2d-18          [-1, 384, 16, 16]          92,160
      BatchNorm2d-19          [-1, 384, 16, 16]             768
AdaptiveAvgPool2d-20            [-1, 384, 1, 1]               0
           Linear-21                   [-1, 10]           3,850
================================================================
Total params: 174,762
Trainable params: 174,762
Non-trainable params: 0
----------------------------------------------------------------
Input size (MB): 0.01
Forward/backward pass size (MB): 18.91
Params size (MB): 0.67
Estimated Total Size (MB): 19.59
----------------------------------------------------------------

Epoch 1/250
Learning Rate: 0.100000
…
